models/reinforce/reinforce_farm_final.pt (torch, 506115 bytes, 8 tensors)

net.0.weight f4 [256, 102]
000000 ca 73 2c bd 5a 2e fe bc 77 67 07 3a 70 19 b3 3d
       -0.042102613 -0.031027962 0.0005165259 0.08745086
000010 4e c8 b3 bd 4e d2 94 3d 32 3c 14 bc f5 d2 0f 3d
       -0.087784395 0.07266675 -0.009047555 0.035113294
000020 03 e7 ac bd 18 54 8d bd 88 31 89 3c 8d e0 34 bb
       -0.084424995 -0.06900805 0.016747251 -0.0027599663
000030 54 e9 9b bd 4a 4a 5c 3c db 13 36 3d 1e 8a 6f bb
       -0.07612863 0.013445446 0.04445253 -0.003655083
000040 2b a5 71 bd d7 75 99 3d f6 18 1e 3d 8d 05 96 bd
       -0.058995407 0.07493179 0.038598023 -0.073252775
000050 03 de 2e bc 6e 07 7f 3d b4 7e ad 3d e1 83 94 3d
       -0.010673049 0.062262945 0.08471432 0.072517164
000060 26 fc 2d 3d 95 f8 27 3d d9 d5 d6 bc dd 0b 71 bc
       0.042476796 0.04100855 -0.026225017 -0.014712301
000070 31 9a b5 3d da ce 67 3c ae e6 b2 bd d2 b3 9a 3c
       0.088673 0.014148438 -0.08735405 0.018884573
000080 8f ec c0 bd 9c 1d 9d bd 97 fb 45 3d 7b 0e a5 3d
       -0.0942012 -0.07671663 0.048335638 0.080594026
000090 2e 93 34 bd ae 0c 19 bd b5 35 58 3d a7 0a 43 3d
       -0.044085674 -0.037365608 0.052785594 0.04761758
0000a0 68 bd 33 3d 93 3e c9 bd 2c 37 ab 3d be 03 1f 3d
       0.043881804 -0.09826388 0.083601326 0.03882193
0000b0 55 33 c6 bd b1 a4 a0 3d 81 d4 39 bd 64 85 ba 3d
       -0.096777596 0.078439124 -0.045368675 0.091074735
0000c0 8c 03 8f 3d d9 9c c4 bc de 0c 13 3d ba 55 85 bd
       0.069830984 -0.024000572 0.035900943 -0.06510492
0000d0 3d fd 83 bd c9 fd a0 bd 60 4e 28 3d bc fa 2f 3b
       -0.06444786 -0.07860906 0.04109037 0.002685233
0000e0 cf ce a6 3c 5f 26 a6 bc f7 cb 9d bd a4 aa 97 3d
       0.020362286 -0.020281969 -0.07704919 0.07405594
0000f0 1b 0a 88 bb 24 45 82 bc 20 a5 68 bd 7f 4c b1 3d
       -0.0041515953 -0.01590211 -0.0567981 0.086571686
000100 7a 89 94 bd e0 8f 61 bd b8 f6 29 3d a3 37 d1 bc
       -0.07252784 -0.05506885 0.041495055 -0.025539225
000110 7b 70 80 bd 21 6a 9a 3d e5 d8 b3 3d 23 7b 27 3d
       -0.06271454 0.07539774 0.08781604 0.040888917
000120 26 18 97 3d 12 b1 a2 bd 6d 69 b7 3d 1d 67 61 ba
       0.07377653 -0.0794393 0.08955655 -0.0008598434
000130 e9 1e cf bb 71 5d 71 bc 19 0c 35 3d 1d 62 cd bd
       -0.0063208234 -0.014731751 0.04420099 -0.10028479
000140 3f b0 6a 3d 66 14 b8 bd f3 77 b2 bd 25 21 6a 3d
       0.057296988 -0.08988266 -0.08714285 0.057160515
000150 f8 e8 9a bd a1 69 f9 3c 16 9c 1f 3d d9 f2 06 bd
       -0.075639665 0.030445876 0.038967215 -0.03294644
000160 76 85 3e bc 87 5f 90 3d 75 f1 7a 3c 51 5d ae bd
       -0.011628499 0.070494704 0.015316357 -0.085138924
000170 e1 02 00 bd 2c aa a2 3d f0 e3 b2 3d b6 e4 b8 bd
       -0.031252746 0.07942614 0.08734882 -0.09027998
000180 1c 6b 4c 3d 06 36 c0 ba 56 a7 eb bc 7e c3 d1 bd
       0.049906835 -0.0014664538 -0.028766315 -0.10242365
000190 06 61 8c bd bc 53 fc 3c 7d ba 7e 3d 12 6f bc bd
       -0.06854443 0.030801646 0.062189568 -0.092008725
0001a0 ff e6 ac bd 4b 97 7f bb 46 39 9f bd 31 9a 11 3d
       -0.084424965 -0.003900009 -0.07774596 0.03554744
0001b0 b9 07 e5 3d cb 9f c7 3d 54 c8 2b bd a1 e6 05 3d
       0.111831136 0.09747275 -0.041939095 0.032690648
0001c0 55 e4 d1 bb b7 c8 a9 bd 73 93 9a 3d 9b 1b 81 3d
       -0.006405393 -0.082902364 0.07547655 0.063040935
0001d0 9b 7a eb 3d 6d 74 0f bd 79 cc aa bd 57 d4 43 3d
       0.114979945 -0.03502314 -0.08339781 0.047809925
0001e0 90 a7 a6 bc 0c 44 8c 3d 4e da e9 3d 0d bf 10 3c
       -0.020343572 0.068489164 0.114185914 0.008834613
0001f0 eb 77 ab 3d 50 e3 5e 3d 88 e1 ca bc c3 e1 d3 3c
       0.08372482 0.054416 -0.024765745 0.025864488
000200 fa a0 b8 3d b7 6e d8 bc 9c f7 58 3d 44 13 f8 3d
       0.09015079 -0.02641998 0.052970514 0.121130496
000210 76 7a aa 3d 5d f0 84 bd 8b 91 92 bd 81 fa 89 3c
       0.08324139 -0.06491158 -0.07156666 0.016843082
000220 f3 3c ad 3d 37 ee f8 3d 90 f0 fc 3c f3 1e eb 3d
       0.08458891 0.12154811 0.030876428 0.114805125
000230 a1 cc de 3d 5b 64 72 3d 57 fa d4 3b 12 f9 ed 3d
       0.108788736 0.059177738 0.0064995694 0.11619772
000240 8e 0d 05 3d 4d 60 cc bb a7 14 6d bd ef a7 a4 3d
       0.03248363 -0.006237066 -0.057881024 0.08039843
000250 b2 2f 49 bc b3 e5 65 bd 3e 56 29 3d 90 43 40 bd
       -0.012279438 -0.05612726 0.041342013 -0.046939433
000260 a5 bb cb 3d 43 b9 22 3d 65 15 33 bc 71 fc 8f 3c
       0.099479 0.03972746 -0.010930394 0.017576428
000270 b0 0a ad 3d f3 dc c4 3d 8d 59 8f bd 8a b8 28 3d
       0.08449304 0.09612455 -0.06999502 0.041191615
000280 32 b9 9c 3d cb f6 32 3d c9 68 52 3d 80 77 a4 3d
       0.07652511 0.04369239 0.051369462 0.08030605
000290 9c d6 65 3c 73 06 da 3d 66 91 ba 3d 80 09 d8 3d
       0.014028218 0.10645761 0.09109764 0.10548687
0002a0 95 ac b6 3d 4b 25 f0 3d 34 d6 90 3d ff ee e4 3d
       0.08919636 0.11725863 0.07072106 0.111783974
0002b0 15 e4 b9 3d 71 2d 80 3d 58 aa 2a 3d d1 8b 8c 3c
       0.09076706 0.06258667 0.04166636 0.017156513
0002c0 5f 6c 4c bd a5 cd 6f 3d 2c 4b 9d 3d 04 2f 90 bd
       -0.04990804 0.058545727 0.076803535 -0.070402175
0002d0 d2 5b 40 bd eb 7a bd bb 52 86 cb bc b2 49 b0 3a
       -0.046962567 -0.005782475 -0.024844322 0.0013449697
0002e0 82 01 94 3d d0 f6 87 bd 09 11 64 bd 7c 9b 88 bd
       0.0722685 -0.066388726 -0.05568031 -0.06670281
0002f0 67 ea ca 3d d9 e4 44 3d e2 dc 4b 3d 50 7b af 3b
       0.0990799 0.04806981 0.049771197 0.005355276
000300 0f bc b1 3c 7d 4f 9e 3d 0c bc 83 3c 93 73 4c bd
       0.021696119 0.07730005 0.016080879 -0.049914908
000310 dc 02 32 3c 48 a9 2e 3d bc 40 0a 3d c9 5b 27 bc
       0.01086494 0.042641908 0.03375314 -0.010214754
000320 c6 83 8e 3d c4 6d 3a bd 0e fe 09 bb 72 b4 be 3d
       0.069587275 -0.045514837 -0.002105597 0.09311761
000330 1f f8 b8 bd a2 dc c0 bd be 9c b6 3d 46 7c ac 3d
       -0.090317 -0.09417082 0.08916615 0.08422141
000340 1d 4a 85 3d 92 87 47 bd df fa b3 bc 3f 62 e5 3b
       0.065082766 -0.048713274 -0.02197021 0.0070002372
000350 a8 7a 66 bd 92 a3 b5 bd 95 11 75 bd 0e f5 41 3c
       -0.056269318 -0.08869089 -0.05983122 0.011838211
000360 d5 f6 37 3c cf 5f a8 3c d7 b1 1b bd ad f1 9b bd
       0.011228283 0.020553498 -0.0380114 -0.07614455
000370 59 83 5b 3d bb c3 21 3d c2 d9 5a bd 42 3a 96 3d
       0.05359206 0.039493304 -0.053430326 0.073353305
000380 ac 5d 7a bd bf 55 29 3c 52 f8 ad bc 15 89 1a 3d
       -0.06112449 0.010335385 -0.021236572 0.037728388
000390 d8 fb 06 3d 42 da 86 ba e1 e4 70 3d 14 a1 4b bd
       0.03295502 -0.0010288435 0.058812026 -0.049714163
0003a0 a4 43 6f bd c3 7f 33 3d 7f ca 15 3c 5d 23 9b 3d
       -0.058414117 0.043823015 0.009142517 0.075751044
0003b0 de 09 83 3d 1e db f8 bc 1a 44 2f b9 44 e1 9b 3d
       0.063983664 -0.03037792 -0.0001671467 0.076113254
0003c0 4d 82 01 3d 5b 7c 88 3d ae f7 7b bd 32 5c a2 3d
       0.031618405 0.06664344 -0.061515503 0.07927741
0003d0 51 d4 8c bd 6f 14 60 bd 85 e2 c0 3c 3b 88 4b 3d
       -0.06876434 -0.054706987 0.023545513 0.049690466
0003e0 0e 23 9e bd 14 26 49 3d 3b 5c 94 bb d7 5e 94 bd
       -0.0772153 0.04910858 -0.0045275963 -0.07244652
0003f0 77 0b 2a 3d c9 a1 6f bb 1c 8b c1 bd 05 25 21 3d
       0.04151484 -0.0036564937 -0.09450361 0.039341945

net.0.bias f4 [256]
000000 43 48 a4 3c c3 ce 61 3d 5e 1e aa bd 7e 9e be 3c
       0.020053988 0.055128824 -0.08306573 0.023268934
000010 8a 9c e7 bd dd 5e 80 bd 9c a1 95 3d 31 54 b6 bd
       -0.11309154 -0.06268094 0.07306215 -0.08902777
000020 86 27 94 bc 65 e0 84 3d e5 91 3f 3d 9b 0a 72 bd
       -0.018085252 0.06488112 0.046769995 -0.059092145
000030 9e ba 5b bd a1 62 9b 3d d5 88 84 3d 4a f8 c7 b9
       -0.05364477 0.07587171 0.06471411 -0.00038141228
000040 ce 99 a2 bc 29 2f b2 bd a3 44 ba 3d ba d0 00 bd
       -0.01984873 -0.08700401 0.09095123 -0.031449057
000050 9b 82 ff 3d 6e 66 8c 3d e1 64 a2 3d c1 ed 52 bd
       0.12476083 0.068554744 0.079293974 -0.05149627
000060 0a 0b 91 bd 5b f7 95 3d 8b 19 8f bd 15 17 b5 3d
       -0.07082184 0.0732257 -0.06987294 0.08842293
000070 93 dc c1 bd e7 ed df 3d b1 00 19 3c 90 4d 8d 3d
       -0.09465899 0.10934048 0.009338544 0.068995595
000080 38 e0 6b 3d 0c 1f ce 3d 07 10 6f bc 4e a5 91 bc
       0.05758688 0.100645155 -0.014591224 -0.017779019
000090 3c 7f 55 bd f9 75 49 3d 35 5d 41 3c fe a7 b2 bc
       -0.052123293 0.049184773 0.011802007 -0.02180862
0000a0 68 e6 8e bd 2b 8b 91 bd b3 74 00 3d fe bb be bd
       -0.0697754 -0.07106622 0.031361293 -0.093132004
0000b0 bb a4 04 bd 65 0c 82 3d a2 5e 4d 3d 8e 49 22 3d
       -0.03238366 0.0635002 0.050139077 0.03962093
0000c0 ac 5d b1 bd e3 f3 a2 3d 03 9f a9 bd 35 bd 00 3d
       -0.086604446 0.07956674 -0.08282282 0.031430442
0000d0 64 ec a1 3d c0 fc 97 3d 63 f8 ae bc b1 10 b6 bc
       0.07906416 0.07421255 -0.021358674 -0.022224756
0000e0 b0 78 8a bc 1e af b9 3d d5 f0 3e bc 9a 84 3e bd
       -0.016903251 0.09066604 -0.0116540985 -0.046513177
0000f0 bb 68 8e 3d 37 12 2c 3d ab f8 9e bd ce 58 b8 3d
       0.069535695 0.04200956 -0.077622734 0.09001313
000100 7f e9 c5 bc ee a6 39 bd e8 50 9e 3d 74 c1 54 bd
       -0.024159191 -0.045325212 0.077302754 -0.051942304
000110 b0 06 17 3b 5e 6c 94 bd e0 39 83 3d 2f 04 7e 3d
       0.0023044758 -0.07247232 0.06407523 0.06201571
000120 3d 1c 27 3b 1f 3a 0e 3c db dd aa 3d 9d 1d d1 bb
       0.002549901 0.008680849 0.08343097 -0.006381704
000130 17 6c 7d 3d b1 81 be 3c 9c ad e3 bb 2e c8 dd bb
       0.06187066 0.023255201 -0.006948186 -0.006768248
000140 e5 04 83 bd ec 6b c5 3d 07 83 40 3b 8b 01 6f bc
       -0.06397418 0.09639725 0.0029374973 -0.01458777
000150 02 0d 08 bb 7a 9f 7d 3d b3 ed a9 bd 9b 2d 87 bd
       -0.0020759706 0.061919667 -0.08297291 -0.066004954
000160 53 13 4d 3d 34 45 58 bd 28 ba d7 bc 57 41 82 3d
       0.050067257 -0.052800372 -0.026333883 0.06360119
000170 b4 33 b4 bd 04 fd b5 3d 81 be b7 bd 51 33 1c 3d
       -0.08798924 0.088861495 -0.089718826 0.038134877
000180 72 f2 b3 bd 1f da 05 3d 34 c6 18 3d 71 a3 4a 3d
       -0.08786477 0.03267872 0.037298396 0.049472276
000190 f6 bb ad 3c d9 b2 db 3c fa 9e 44 bd d7 c4 99 bd
       0.02120779 0.02681868 -0.048003174 -0.07508247
0001a0 9c 1c bc bd 0a 18 68 bd 7f e6 90 bd 91 92 ef bc
       -0.09185144 -0.05666355 -0.07075214 -0.029244693
0001b0 5c 3e 81 3d db df 69 3d bd 8c 9a 3d 9e d5 16 3c
       0.06310722 0.05709825 0.07546375 0.009206204
0001c0 96 38 7a bc f2 67 b1 bd 3e cd 0d 39 ca 0c 07 3d
       -0.01527228 -0.08662404 0.00013523267 0.03297118
0001d0 27 3d c5 bd cb ed ab 3d f5 d8 6b 3d 2b 7b ca 3d
       -0.096308045 0.08394965 0.057579953 0.09886774
0001e0 d5 6f 08 3d d7 56 24 3d 47 35 86 3d bd ac f4 3b
       0.033309776 0.04012188 0.065531306 0.007466881
0001f0 42 c1 27 bd 7b dc c1 3c 36 e8 a8 3d 69 5d cb 3d
       -0.04095579 0.023664704 0.08247416 0.09929926
000200 16 84 1f bd ac a7 58 bb 52 75 c4 bc cc 9d cd ba
       -0.038944326 -0.0033058925 -0.023981724 -0.0015687286
000210 39 93 a2 3d 50 02 c3 bb e6 2f 11 bd 8a b3 8c 3d
       0.07938237 -0.0059512034 -0.03544607 0.06870182
000220 ad 5d 61 3a cd aa bd bd bf a5 78 3d ce 6e e9 3c
       0.00085970276 -0.09261093 0.060704943 0.028495219
000230 a5 fc 52 3d 91 72 53 bd db 2e 8a 3d ff 5e 9c 3d
       0.05151047 -0.05162293 0.06747218 0.076353066
000240 fa 36 39 3d 53 ba db 3c 43 37 86 3d fd e6 15 bd
       0.045218445 0.026822245 0.06553509 -0.03659724
000250 8f c1 cb 3c 64 e5 32 bb f6 ed 4c 3d 5b f2 3f bd
       0.02487257 -0.0027297372 0.050031625 -0.046861988
000260 f1 72 8e bd 1e 74 83 3d d7 17 49 bc c3 a2 2c 3d
       -0.06955517 0.06418632 -0.01227375 0.04214741
000270 04 20 6c 3d cb 0d 91 bd 08 89 7c bc 60 f9 72 3d
       0.05764772 -0.07082709 -0.01541353 0.059319854
000280 6c 61 2c bd 61 60 30 bd b2 1c ae bc ac c0 f9 bc
       -0.042085096 -0.043060664 -0.021253917 -0.03048738
000290 e1 89 39 bd 7f 46 b4 bd 0f a3 82 bc c8 7c 96 bd
       -0.045297507 -0.088025086 -0.015946893 -0.07348019
0002a0 6e d2 0f bd 01 7a bf bd b7 72 b6 bd ef be e6 3d
       -0.03511279 -0.09349442 -0.08908599 0.112668864
0002b0 b6 9c 95 bc a4 dd a2 3d a9 5b 32 3d 61 03 9e bd
       -0.018263202 0.07952431 0.043544445 -0.07715488
0002c0 ef 9c 0a bd 00 81 a3 3d 93 ee 66 3c 9c 12 71 3c
       -0.03384107 0.07983589 0.014094966 0.0147139095
0002d0 10 0e ba 3d 0b bb a2 3d 11 35 bf bd 31 95 e9 bd
       0.090847135 0.07945832 -0.093362935 -0.11405409
0002e0 31 f5 ab bd 22 73 b7 3c 37 6d 91 3d 98 27 de 3c
       -0.08396376 0.022393767 0.07100909 0.02711849
0002f0 4c c3 c5 3c 65 84 a3 3d 14 04 93 bd 9f 2e 77 3d
       0.024140976 0.07984237 -0.07178512 0.060347196
000300 91 9d 48 bd df 68 c6 3d a9 f7 31 bc eb 8b 3e bc
       -0.048978392 0.09687971 -0.010862269 -0.011630039
000310 a2 dc b6 bd 8c 0d 85 3d 67 a5 be bd 51 4c 96 3d
       -0.08928801 0.064967245 -0.09308892 0.07338775
000320 1e 07 51 bd 30 59 a4 bd 1a 5f 9c bb bc 71 71 3c
       -0.051032178 -0.08024824 -0.004772079 0.014736589
000330 ba 7f 49 bd c0 b0 b9 bd 88 8a 83 bc 41 14 34 bd
       -0.049194075 -0.090669155 -0.016057268 -0.043964628
000340 e0 91 61 3d 36 d4 9a 3d 72 87 b3 bc ee 9c f7 3d
       0.055070758 0.07560007 -0.021915171 0.12090479
000350 6e 09 95 3d e0 0b ab bc fe 2a 1f 3d 65 4b 2d bd
       0.07277189 -0.020879686 0.03885936 -0.04230823
000360 ce b0 90 3d 28 02 90 bd e8 0d 93 bd f5 03 98 bc
       0.07064973 -0.07031661 -0.07180387 -0.018556574
000370 fa 40 83 bc a6 e5 a4 3d 78 de 3c 3c 50 66 96 ba
       -0.016022194 0.080516145 0.01152765 -0.0011474583
000380 07 c5 c5 3b f3 30 c4 3d fd 6e 44 bd c6 7e 6f 3d
       0.0060354504 0.09579649 -0.04795741 0.05847051
000390 f7 2b 80 3d 9d ca 98 3c 38 45 58 bb 45 d5 b0 bd
       0.06258386 0.018651301 -0.0033000242 -0.08634428
0003a0 94 fb 72 3d 50 64 28 3d 09 a5 ad 3c e9 67 0b 3d
       0.059321955 0.04111129 0.021196859 0.034034643
0003b0 5a 37 ec bc 5e 8f d7 3d 39 aa 4a 3c 7a 99 50 bd
       -0.028834987 0.10525392 0.012369686 -0.050927617
0003c0 42 2f d4 3c 8c aa ad 3c df 7e 26 3d bd 4d a4 3c
       0.02590144 0.021199487 0.040648337 0.0200566
0003d0 01 2b e2 3d 69 1f 20 3d 5b 8e e6 3d 3b 72 00 bc
       0.110433586 0.039092455 0.11257621 -0.007839735
0003e0 0d 8b c0 3d a6 9a ac 3d c0 88 9e bd 50 32 a8 bd
       0.09401522 0.08427934 -0.07740927 -0.08212721
0003f0 3c e9 a1 3d 60 35 bc bd 60 10 84 3c 73 79 70 bd
       0.07905814 -0.09189868 0.01612109 -0.058709573

net.2.weight f4 [256, 256]
000000 52 e7 33 3a 11 3d 57 3d 0e b4 1a 3c 6e ba 03 bb
       0.00068627775 0.05254847 0.009442342 -0.0020100134
000010 ec ac da 3c ef 2f 90 bc 8b 66 bf 3c cc a4 d4 bc
       0.026693784 -0.017600982 0.023364326 -0.025957488
000020 54 ef e4 ba b0 17 13 3d ea 4b a0 ba 57 87 f2 3c
       -0.0017466345 0.035911262 -0.0012229655 0.02960555
000030 f1 cf 32 bd 5d a7 e5 3c d6 ce 14 bd 41 32 da 3b
       -0.04365534 0.028033907 -0.036330067 0.0066588228
000040 12 c9 bd 3b 84 db 52 bc b6 01 b4 bc 13 26 42 bd
       0.0057917917 -0.012869719 -0.021973472 -0.04739959
000050 e8 a9 c0 bc 76 e0 6a bd ea ce f7 bc ba fe 60 3b
       -0.023518518 -0.05734297 -0.030250032 0.0034331516
000060 10 1c 18 3d 53 a6 3a bd 45 fd 73 bd f3 7c 14 bc
       0.037136137 -0.045568775 -0.05956771 -0.009062993
000070 ce 97 05 bd e9 b7 a8 3c 8c e2 d8 bc cf 1e 27 3c
       -0.032615475 0.020595508 -0.026475213 0.010200216
000080 ab 83 62 3d 94 b6 05 bc 74 f0 77 3d 39 18 55 3d
       0.05530135 -0.008161206 0.06053205 0.052025054
000090 79 e7 5f bc 5c 8d 2d bd 2c bd d0 bc 94 4c 81 3c
       -0.013666027 -0.04237114 -0.02548083 0.015783586
0000a0 d0 be 01 bd 19 03 96 bc 64 3b 2b 3d 43 1c 45 bb
       -0.031676114 -0.018312024 0.041804686 -0.003007666
0000b0 f1 11 63 bd 67 c5 6f 3c 16 7e d0 bc 17 c6 5b bd
       -0.055437032 0.014634467 -0.025450747 -0.05365571
0000c0 ee 6d 33 bd 1d f3 e9 3c c9 0a 23 3c e5 81 00 3d
       -0.04380601 0.028558308 0.009951302 0.031373877
0000d0 2f cc d4 bc 57 51 6f bd 6f 97 54 3d a9 63 ac bc
       -0.025976269 -0.05842718 0.05190223 -0.021043615
0000e0 ef 1f b8 3c 6d fe 39 3c 54 bc 74 3d 8b 5b 13 bc
       0.022476165 0.011352164 0.059749916 -0.0089939935
0000f0 de ed 75 bb 6a d0 01 bc 95 c2 71 bd 20 5e 23 bd
       -0.0037525813 -0.007923225 -0.05902346 -0.039884686
000100 48 0c 1d 3d 59 6d 3c 3d f4 7c 48 3d f8 21 de 3c
       0.03834179 0.04600272 0.04894729 0.027115807
000110 49 73 66 3d e2 3f 2d 3d c4 0c 25 ba fc e7 e5 bc
       0.05626229 0.04229725 -0.0006296153 -0.02806472
000120 64 72 43 3c c4 1c dd 3c ae 3e 70 bc c8 9a 1e bd
       0.011929128 0.026991256 -0.0146633815 -0.03872183
000130 5f 9e 84 bd c4 3d e7 bc 1b 19 68 3c 31 70 e3 3c
       -0.064755194 -0.028227694 0.014166142 0.027763458
000140 99 d8 53 3d 72 b5 a6 3c b9 79 9a bb bf b2 1d 3d
       0.051720235 0.020350192 -0.0047142175 0.038500544
000150 d8 42 31 3c 10 e3 5f bd 3d 24 e9 3c dd d4 51 bd
       0.010819159 -0.054659903 0.028459663 -0.051228393
000160 5c 89 20 3c 62 a2 04 bd df 98 8c 3a 87 c9 bb bc
       0.009798374 -0.032381423 0.0010726711 -0.022923244
000170 cd cd 45 bd 6d 19 64 bd d5 60 3c bc 7d 15 92 bb
       -0.04829197 -0.05568831 -0.011497696 -0.004458128
000180 8f 21 08 bd a4 15 9d 3c fc 52 31 bd 1d 1d 6d 3b
       -0.03323513 0.019175358 -0.04329203 0.0036180683
000190 8a cd 1b bd 0d 5a 3a bd dd 59 fc 3c 3c eb 3d bc
       -0.038037814 -0.045496035 0.030804569 -0.011591729
0001a0 22 52 d1 bc b2 25 15 3c 34 12 c3 3c ff 14 f8 bc
       -0.02555186 0.009103226 0.02381239 -0.03028345
0001b0 ed a9 24 bd 28 de 7d bd ee bf 98 bc 22 e9 21 bd
       -0.040201116 -0.061979443 -0.018646207 -0.039528973
0001c0 19 91 2d 3d 0d 26 10 bb 98 6c 99 3c e0 6a 9c 3b
       0.042374704 -0.0021995336 0.01872854 0.0047734827
0001d0 7e da ef 3c 9f b2 4d bd c8 e2 61 bd 66 e6 7d bd
       0.02927899 -0.050219174 -0.055147916 -0.061987303
0001e0 1b 91 97 bc ab 8a 34 3d 9f 58 7b 3d 56 2c 7b bb
       -0.018501809 0.044077557 0.061363813 -0.0038325987
0001f0 c7 47 c1 bc 66 76 ec bc a9 2d ca 3c 30 d7 34 3d
       -0.023593796 -0.02886505 0.024679976 0.04415053
000200 de 04 87 bd 8b 32 c7 bc 88 51 ba bc 3a 4b 73 bd
       -0.06592725 -0.024316093 -0.022743955 -0.059397914
000210 32 b6 23 bd 33 4e 65 bd f5 d7 c6 bb d0 e0 28 3d
       -0.039968677 -0.05598278 -0.0060682246 0.041230023
000220 bb fc 9b 3c 68 3d 0f 3d 04 87 ff 3c 7e 27 ca 3c
       0.01904141 0.03497067 0.03119231 0.024677034
000230 7d 9e 05 bd 79 2a 4b bc 8d 58 da bb 35 14 df 3c
       -0.03262185 -0.012400263 -0.006663388 0.027231315
000240 97 b1 87 3d 71 f7 5a 3d 15 f2 97 3b 07 62 8a bd
       0.066256694 0.053458635 0.0046370127 -0.067569785
000250 ba df 9b bc ab 1e 76 bd 0d 09 ff bc e7 f5 5f 3d
       -0.01902758 -0.06008784 -0.031132245 0.05467787
000260 70 d1 65 3c e8 c2 36 3d 71 a7 73 3d 5e bd 1a 3d
       0.014026985 0.04461947 0.059485856 0.03777825
000270 ac 91 41 bd 2c b9 3b bd 28 46 1d 3d 38 84 41 bd
       -0.047258064 -0.04583089 0.038396984 -0.047245234
000280 16 b5 22 3d e0 85 82 bc a3 11 a9 3b 71 db e4 bc
       0.03972348 -0.015932977 0.005159573 -0.027936669
000290 45 58 fb bc 49 77 68 3d f7 b4 9b 3c fe 5f cd bc
       -0.030681739 0.056754384 0.01900719 -0.025070187
0002a0 74 8d 25 3d 56 34 e8 bc 19 4b 4a 3d 4c 05 6a 3d
       0.040418103 -0.028345268 0.049388025 0.057133958
0002b0 07 f2 3f 3d 23 7e 62 bd 1d 65 a0 bb b3 9b d0 bc
       0.046861675 -0.055296075 -0.004894866 -0.025464868
0002c0 53 34 3a bd f5 0c 15 3d d3 8c ff bc cb 65 c5 bb
       -0.045460057 0.03638931 -0.03119508 -0.0060240976
0002d0 c1 8d 34 3d 95 d4 fd bc 2a 4a 2c 3c 2c 3b bc 3c
       0.0440805 -0.030985156 0.010515729 0.022977434
0002e0 e3 55 57 3c 0e bf 29 3d 30 5d 72 3d 72 99 3d 3d
       0.013143036 0.04144197 0.0591709 0.046288915
0002f0 a8 7c 25 bd 89 66 0b 3c ef 83 ef bc 9b ce 08 3d
       -0.040402085 0.008508333 -0.029237716 0.03340016
000300 df 12 c7 b8 83 b6 e0 3c ed b9 f2 3c b2 ed 85 bb
       -9.4925745e-05 0.027430778 0.029629672 -0.0040871734
000310 ab 5d 67 3d 7c 87 72 3d d0 5d cd bc 3e b1 c9 3c
       0.056485813 0.05921124 -0.025069147 0.024620648
000320 9f 18 39 3c f5 1c 37 bd ca a0 1f 3d 6b 2a 1f 3d
       0.011297374 -0.04470535 0.0389717 0.038858812
000330 40 9d f5 3c f0 58 2a 3d 21 ae 6a bd 97 e3 a9 bc
       0.02998221 0.041588724 -0.05729497 -0.020738406
000340 95 b1 25 3d a1 5d d4 3c 03 95 0b bd 5e 48 fe bc
       0.04045256 0.025923552 -0.034077656 -0.031040367
000350 55 83 15 3c 9e 79 83 3c 00 7d 8c bc 68 3b 01 bc
       0.00912555 0.016049203 -0.017149448 -0.007887699
000360 0f ef d9 bc 45 f4 98 3c 36 5a 06 bd 89 0d 29 3c
       -0.02660325 0.018671164 -0.032800876 0.010318168
000370 b6 42 f0 3b fd 84 b2 bc fd ba 17 bd 86 92 a6 bc
       0.0073321713 -0.02179193 -0.03704356 -0.02033354
000380 05 3d 2d 3d 64 a0 3c 3d e1 5f 52 3d e7 61 f0 bb
       0.04229452 0.046051398 0.05136097 -0.0073358896
000390 09 c4 34 3b 2d 2f c5 bb 3d 27 70 bd e4 d8 0c bd
       0.0027582666 -0.0060175867 -0.05863117 -0.03438653
0003a0 1f e4 1d 3d 0d df 47 bd 33 f8 d1 bc f5 f2 c4 bc
       0.03854763 -0.048796702 -0.025631046 -0.024041632
0003b0 46 92 ee 3c 8a d4 65 3b e7 a6 98 bc 40 a4 8d 3d
       0.029122483 0.003506931 -0.018634273 0.06916094
0003c0 8d 6a 62 3c e0 c3 03 3d c5 e8 8a bd 7a 8f f3 3b
       0.013819349 0.032169223 -0.067826785 0.007432875
0003d0 a9 56 2e bc ba df 64 3d c9 42 83 bd 20 1e 38 3d
       -0.010640779 0.055877425 -0.06409223 0.044950604
0003e0 b8 2e 53 bc b6 e1 23 bd 0f 5d 22 bd c4 8d 73 bd
       -0.012889557 -0.040010177 -0.03963953 -0.05946137
0003f0 10 05 87 bc 86 1b fc bc 59 73 1c 3d 1f cb 8e bd
       -0.016481906 -0.030774843 0.03819594 -0.06972336

net.2.bias f4 [256]
000000 49 25 5f bd 48 ed 6c 3b 44 00 9a 3d 35 7b a7 bb
       -0.054478917 0.0036152173 0.07519582 -0.005111123
000010 26 64 f7 3c 6e ef 93 3d e5 37 34 bd 70 79 32 bc
       0.030199122 0.07223402 -0.043998618 -0.010893211
000020 0c fc 4e bd 4b 23 70 b9 38 a2 1f 3d 01 d6 14 3c
       -0.05053334 -0.00022901331 0.038973063 0.009084226
000030 88 7c 5c bd ea 4a 3c 3d d5 d0 14 3d c6 9d a9 bc
       -0.0538297 0.04596988 0.03633197 -0.020705115
000040 88 b2 9f bc b4 01 0b 3c 78 66 ac bc 13 dc 0a 3b
       -0.01949431 0.008484293 -0.021044955 0.0021188303
000050 60 13 3e 3c 91 89 7e bc 1f ae 78 bc cd f0 42 3d
       0.011601299 -0.015535728 -0.015178232 0.047592927
000060 04 83 63 3c 4f 86 4f 3d 1f 59 97 bd 92 87 de 3b
       0.013886217 0.050665196 -0.073900454 0.0067910636
000070 c7 bd eb bc 21 59 64 bc 05 ae a7 3d fa d9 78 bd
       -0.028777016 -0.013937266 0.081874885 -0.060754754
000080 44 b4 e5 bc a5 61 01 3d 0e 73 4a 3d 8d 1c 41 bc
       -0.028040059 0.03158726 0.04942613 -0.011786592
000090 2b e4 2a 3d d4 7b b9 3d 29 b7 5b bc ec cb ad 3d
       0.041721504 0.090568215 -0.013410368 0.08486161
0000a0 b7 2c fe bc ba 3f 28 3c f4 bd 2b bd c7 c2 13 bd
       -0.031027181 0.0102691 -0.0419292 -0.036074426
0000b0 4e 81 5f 3d 43 cb f6 bb a5 39 5d 3d c1 23 09 3c
       0.054566674 -0.007531555 0.054010052 0.008370341
0000c0 3c d4 9b 3d 2b 84 fc bc 3c 63 3e 3d e1 a9 37 3d
       0.0760884 -0.030824741 0.046481356 0.044839744
0000d0 17 e0 34 3d de 8a 6e bd ef 1e cb bb b8 0e a2 3d
       0.04415902 -0.058237903 -0.006198756 0.07912964
0000e0 ec 93 1b 3d 1a 7e 1a 3c b1 57 5f bd c2 84 92 3d
       0.037982866 0.009429479 -0.05452699 0.07154228
0000f0 a1 04 c4 bc 22 34 4d 3d 25 9b 3a 3c 72 06 56 3c
       -0.023927988 0.050098546 0.011389528 0.01306306
000100 13 e3 3b bc ed 24 34 3d f8 44 1e bd e6 f1 2d 3d
       -0.011467713 0.043980528 -0.038639992 0.04246702
000110 17 d5 5b 3d a5 65 f5 3c ce 32 78 bd 6f c0 87 bc
       0.053670015 0.029955694 -0.060595326 -0.016571252
000120 20 0c 20 3c f1 d6 3e 3d c6 22 98 3c 1c 76 18 3d
       0.009768516 0.046591703 0.018571269 0.037222013
000130 58 5c a4 3c ed 49 e8 bc 2a 3e 45 3d bc 94 0b 3c
       0.020063564 -0.028355563 0.048154987 0.008519348
000140 44 ab cf 3b 06 fc 3e bd a8 1c da 3c c7 bb 72 bd
       0.006337555 -0.046627067 0.026624992 -0.05926111
000150 de 8d 80 bb ed ad 4d bd eb ba 9d 3d 4f b4 fc 3c
       -0.003923162 -0.050214697 0.077016674 0.030847697
000160 50 8d 21 bd 20 31 30 3d 78 70 73 3d 60 1e cc 3b
       -0.039441407 0.0430156 0.05943343 0.006229207
000170 1d 34 50 3d 29 ce 7b 3c dd d2 46 bd 54 cf 2c 3d
       0.05083095 0.015368977 -0.04854094 0.04218991
000180 3e 7a 97 bc 06 3d bd 3c 83 3a 82 3d 98 d2 68 bd
       -0.018490907 0.023100387 0.063588165 -0.056841463
000190 b9 07 b8 3c a8 f6 ad bc 35 82 1e 3c 36 1a ae bc
       0.02246462 -0.021235779 0.009674598 -0.021252733
0001a0 49 83 31 bd ac 05 6a 3d 67 4f 84 bd 70 dd 41 bd
       -0.043338094 0.057134315 -0.06460457 -0.04733032
0001b0 f2 d8 98 bc de af 77 3d 34 af 6e 3c 81 85 0d bd
       -0.018658135 0.060470454 0.014568139 -0.034551147
0001c0 6e ad 86 3d 44 52 4d bd 67 08 8d 3d 68 34 83 3d
       0.06576048 -0.050127283 0.06886368 0.0640648
0001d0 69 d6 4b bd 39 36 bf 3c 07 26 e8 3c e3 2d 8c 3c
       -0.049765024 0.023341285 0.028338445 0.017111724
0001e0 57 36 ca bb 3e 41 03 3d 3b af 8c bc 67 0b 7c bd
       -0.0061710286 0.03204464 -0.0171734 -0.06153431
0001f0 4f 8d 6b 3c 9f 71 05 bc fa e6 6f 3d df d9 9d bb
       0.014376952 -0.008144765 0.058569886 -0.004817232
000200 a3 0d 85 bd b3 eb c8 3c aa 44 b7 3c 58 92 77 3d
       -0.064967416 0.024526453 0.022371609 0.0604423
000210 53 9d 24 3d e4 39 38 bd 9a 04 71 bd 6d 3c cf bc
       0.0401891 -0.044977084 -0.05884228 -0.025297368
000220 86 f5 1d bd 00 c6 5c bc f5 ae 7c bc 62 73 09 bc
       -0.038564228 -0.013474941 -0.015422572 -0.008389326
000230 fb 36 10 bd f8 07 c4 3c 30 fc 34 3d 6f 10 e6 bc
       -0.035208683 0.023929581 0.044185817 -0.028084008
000240 66 6a 2f bd a5 a6 4f 3d 96 31 39 bc 5d f9 71 3d
       -0.04282608 0.050696034 -0.011303326 0.059075702
000250 93 41 52 bd ec 33 90 bb c7 8d 37 3d 16 cc 85 3d
       -0.051332068 -0.004400721 0.044812944 0.06533067
000260 f7 7e ca bc ad 62 5b 3d c2 b3 1d 3d 8b 02 ed bc
       -0.024718745 0.0535609 0.03850151 -0.028931877
000270 4a b1 28 3d 3b e2 52 bb 4a 65 69 bd 99 df 01 bc
       0.0411847 -0.00321783 -0.056981362 -0.007926845
000280 9d a2 69 bd 18 30 f7 3c ff 5a 7e bd 79 2e 23 bd
       -0.057039846 0.0301743 -0.0620985 -0.03983924
000290 ed 35 8b 3c 89 c8 13 3d 1f b5 81 bd 87 35 0d 3d
       0.016993487 0.036079917 -0.06333374 0.034474876
0002a0 92 6b 21 3d 0d 30 17 bc 54 55 db 3c 7b b6 73 bd
       0.039409228 -0.009227765 0.026774086 -0.0595002
0002b0 97 a4 fe bb 49 1c 2a 3d fd 69 a9 3c e6 a6 4a bb
       -0.0077710855 0.04153088 0.020680422 -0.0030922233
0002c0 ad 52 ab bc 67 42 b3 3d 41 1b 06 3d 39 31 26 3d
       -0.020913446 0.087528996 0.032740835 0.040574286
0002d0 c9 ac 2a 3d 34 de 8f 3d 44 08 7b bc bd 2d 21 bc
       0.041668687 0.07024804 -0.015321795 -0.009837565
0002e0 97 f5 db bb 28 21 a9 bc 5e 0d b5 3b 99 98 3c 3d
       -0.006712626 -0.020645693 0.005525275 0.046043966
0002f0 2a 1f 10 3d f6 33 5e bd 7b 6d 4c 3c 1d 83 61 bd
       0.03518597 -0.054248773 0.012477274 -0.05505668
000300 3d 5c ab 3b 88 88 ac 3d bc c6 64 3d 86 9d a5 bc
       0.0052295015 0.08424479 0.05585359 -0.020216715
000310 40 00 98 b8 6d 10 1e 3d fb 48 9c 3d a8 4e c1 3c
       -7.2479714e-05 0.038589884 0.076311074 0.023597077
000320 e1 27 76 bc 8f be c7 3d 22 9c 8f bc b4 70 a0 3d
       -0.015024156 0.09753143 -0.017530505 0.078339964
000330 86 77 e1 bc 6e 1e 73 bd d2 a3 4c 3b 28 52 ba 3b
       -0.027522814 -0.059355192 0.0031225574 0.0056860633
000340 ab 9d 41 3c ba ce 0c bd 75 3b 7b bd 8c ac 0f bd
       0.011817376 -0.034376837 -0.061336 -0.035076663
000350 3e 2e db 3b 21 fe 17 bd b5 4b 48 bc 9b 48 05 3c
       0.006688862 -0.03710759 -0.012225081 0.008134986
000360 8f 8f a6 bc c6 87 30 3d 4c d0 30 3d 5c 85 ea 3c
       -0.020332126 0.043098234 0.043167397 0.028628044
000370 e7 eb 23 bd d1 4d 27 3b c9 fa 02 bd 7a df 86 bd
       -0.040019896 0.002552856 -0.03197745 -0.065855935
000380 42 a4 b7 3c 1b d0 20 3d 18 cc 06 bd 40 8f 55 3c
       0.022417191 0.039260965 -0.032909483 0.013034642
000390 21 96 d9 3c 40 d3 99 bb bf 6c 74 bd d0 a8 a0 3d
       0.026560845 -0.0046943724 -0.05967402 0.078446984
0003a0 1a 0c 77 3c 3a 06 55 bc 88 28 8e bc 94 97 25 3a
       0.015078569 -0.013001973 -0.017353311 0.00063168374
0003b0 ac d8 75 bd c4 ee d3 3c 84 a5 e4 3c 55 0d fb bc
       -0.060021088 0.025870688 0.027910955 -0.030646006
0003c0 b4 09 63 3d 5c 90 f1 bc 8c 8f 5e 3d 9d a5 36 3d
       0.055429175 -0.029487781 0.054336116 0.044591535
0003d0 f5 cb 31 3c b3 db 40 3c 5a ed 9c 3d b4 00 5d 3d
       0.01085185 0.01177113 0.07662459 0.05395575
0003e0 0a 16 8d bb 3f 8c e0 3c d2 81 36 3d 79 73 95 bc
       -0.004305606 0.027410625 0.0445574 -0.018243538
0003f0 d8 cc 33 3d f9 04 98 3c fd 37 a9 3c 54 a8 26 bd
       0.043896526 0.018557059 0.02065658 -0.040687874

net.4.weight f4 [128, 256]
000000 17 62 f0 bc e4 38 34 3d 1e 0f 20 3c 6f 1b e7 3c
       -0.029343648 0.043999568 0.009769229 0.028211324
000010 a3 f1 6a 3d 3c 08 22 3d c9 fd 58 3d ce 4e 55 3d
       0.05735935 0.039558634 0.052976403 0.052077107
000020 46 68 b3 3c 9c be 42 bd 54 44 aa bc 39 97 02 bd
       0.021900307 -0.04754506 -0.020784535 -0.0318825
000030 c6 9f d1 3c 6d 65 af bc 58 d7 45 bc 86 18 8b bc
       0.025588881 -0.021410668 -0.012075268 -0.016979467
000040 c0 b7 79 bd 4c 8b 35 3d 10 db 08 bd e5 06 d5 bc
       -0.060966253 0.044322297 -0.03341204 -0.026004264
000050 20 eb 40 3d 72 13 96 3c ca 50 7b bd cf 35 52 3c
       0.047099233 0.01831982 -0.061356343 0.012830212
000060 90 b2 e7 3c e1 d8 2f bc 0c 46 3e bd 26 e4 4b 3d
       0.028283387 -0.01073286 -0.04645352 0.049778126
000070 9c 65 80 bc 38 af 26 bd b7 87 8e 3c ae 41 58 3d
       -0.015673451 -0.040694445 0.017398698 0.052797012
000080 c0 7e 0d bb c0 86 86 3a f3 5d 90 3b 18 6e d2 bc
       -0.0021590441 0.0010263547 0.004405731 -0.025687262
000090 f9 62 48 bd 72 b0 b3 3c b2 62 27 bd ef 23 ab 3c
       -0.048922513 0.021934722 -0.040865608 0.020891158
0000a0 69 a9 3c 3c c9 71 c0 3b 0b 2c 68 3d 10 6e 7c 3c
       0.011515 0.0058729392 0.056682628 0.0154071
0000b0 c2 4d 18 3d f1 5e a1 3c c4 3c 25 3d cd 16 68 bd
       0.03718353 0.019698592 0.040341154 -0.05666237
0000c0 39 1f 80 bd 89 24 5c 3d 2e 6d 14 3d d7 87 1d bd
       -0.06255955 0.05374578 0.036236934 -0.038459625
0000d0 65 91 10 3c d5 0f 52 bd 6c ce 31 bd 47 a7 57 bd
       0.008823727 -0.05128463 -0.04340975 -0.052649762
0000e0 e0 17 22 bd 3c e1 8a bc 6e de 4c bd 4d 37 f6 3a
       -0.03957355 -0.016953103 -0.050016813 0.0018784791
0000f0 2f 0b e4 3c e8 84 b9 3c 0d 9b c7 3c 4c 4a 48 bd
       0.027837364 0.022646382 0.024365926 -0.04889898
000100 c1 31 24 bd 24 ca e2 3b 60 08 63 bc cb 05 32 bd
       -0.04008651 0.0069210697 -0.013856977 -0.043462556
000110 55 c5 b1 bc 46 60 bb 3c ff e8 db 3c af e1 78 3c
       -0.02170054 0.022873055 0.0268445 0.015190526
000120 5e 7a d5 3c 8c fa 79 bc 00 fe 94 ba b1 45 29 3c
       0.026059326 -0.015257489 -0.0011367202 0.010331557
000130 e2 86 27 bd 34 fb 61 3d 6e 59 e2 3c 96 09 5d bd
       -0.04090012 0.055171207 0.027630534 -0.05396422
000140 70 9b 5e bd 61 0b 0a bd 06 14 67 bd 50 41 bc bc
       -0.054347456 -0.033702258 -0.05641558 -0.022980362
000150 7b ce ae bc d0 48 83 bc c6 50 95 bb 22 77 ef b8
       -0.021338692 -0.01602593 -0.004556748 -0.00011418598
000160 08 b1 1c 3d e4 34 74 3c 9d e3 85 bd a3 27 b0 bb
       0.038254768 0.014905188 -0.065375544 -0.005375819
000170 33 a1 20 bc 56 ab 7c 3c cc 00 74 bd f0 d3 42 3c
       -0.009804058 0.015421709 -0.059571072 0.01189135
000180 c0 39 a2 3b 16 6f 72 3d 42 aa 81 bd a8 e5 26 bc
       0.004950732 0.05918797 -0.06331302 -0.01018659
000190 c8 7a bf 3c f0 cd 7d 3d 05 e2 09 bd 10 72 d5 3c
       0.023373976 0.061963975 -0.033662815 0.026055366
0001a0 e9 07 c1 3c 19 9b d2 3c 74 11 5d bd d0 ef 16 bd
       0.023563342 0.025708722 -0.053971723 -0.036849797
0001b0 f9 90 9c bc 1e 40 bc bc fb 95 97 3c 54 0f 2e 3d
       -0.019112097 -0.022979792 0.018504133 0.042495087
0001c0 fd 30 81 bd 4c 28 c5 bc 03 77 0f 3d 0d d5 6e bd
       -0.06308172 -0.024067067 0.035025608 -0.05830865
0001d0 20 f9 4e 3d eb ce 62 bd c6 c8 2b bc 70 c7 10 3d
       0.050530553 -0.055373114 -0.01048488 0.03534645
0001e0 a0 27 26 3b ec b2 6f 3d b1 ac 05 3d 20 6b 8c 3c
       0.0025353208 0.058520243 0.032635394 0.017140925
0001f0 f0 5e 6c bc 04 5b 5d 3d 1b fd 4e 3d e0 1c 40 3c
       -0.014426932 0.054041877 0.05053435 0.011725634
000200 87 1c c9 bb 4c d4 0e 3d ed 33 bc bc a5 28 2e bd
       -0.006137434 0.03487043 -0.022973979 -0.04251923
000210 45 a3 3d bd 84 b0 5a bd 64 f4 5f 3d cc d9 4b bd
       -0.046298284 -0.053390995 0.05467643 -0.049768254
000220 0e 5e 76 3d c0 54 d5 3c b6 30 ad 3c 97 fc 40 bd
       0.06014829 0.026041389 0.021141391 -0.04711589
000230 c4 09 dd bc a0 f1 77 3d c3 3f 37 3d 9c fc bd 3c
       -0.026982196 0.060533166 0.044738542 0.023191743
000240 e5 7e 61 3d 63 45 2f 3d 01 83 d3 3c 79 21 58 bd
       0.055052657 0.04279078 0.025819303 -0.052766297
000250 e2 cf 5c bd 06 71 52 bd e6 88 22 3d 94 48 e7 3c
       -0.05390919 -0.05137732 0.039681338 0.02823285
000260 c3 38 91 bc d9 92 07 bd be 3e 44 bd ff 8b 18 bb
       -0.017727261 -0.03309903 -0.047911398 -0.0023276804
000270 b0 9e f9 bc d5 fa 20 bd 06 2c 12 3d ac 96 d0 bc
       -0.030471176 -0.039301712 0.035686515 -0.025462471
000280 91 6d 1a bd 4c 1e 7b bd 2c 95 69 3d 28 24 6e 3d
       -0.037702147 -0.06130819 0.057027027 0.05813995
000290 fd 19 00 ba 13 1a 53 bd d0 75 7c 3d ef cc 36 3d
       -0.0004886685 -0.05153854 0.061635792 0.044629034
0002a0 35 be 01 bd 78 b2 85 bd ef e8 4c bc da 37 2a 3d
       -0.031675536 -0.06528181 -0.012506708 0.04155717
0002b0 28 e8 a1 bb 50 ef cb bb 60 4c 70 bb 9a 1b 77 bd
       -0.0049410053 -0.0062235966 -0.0036666617 -0.060329057
0002c0 0f 98 1f bd ee cb 5e bb e5 83 70 3d af 5c b2 3b
       -0.038963374 -0.0033996063 0.058719534 0.0054431777
0002d0 58 3e 61 bd 59 78 2b 3c 44 7c 80 bc b8 00 6c 3c
       -0.054991096 0.010465705 -0.015684254 0.014404468
0002e0 10 39 3e 3d 6c c5 5f bd 64 ff 05 bd 1d 84 c7 bb
       0.046441138 -0.054631636 -0.032714263 -0.006088747
0002f0 70 1c 86 bc 94 43 c7 bc 30 86 39 bd 4e b1 1f bd
       -0.016370982 -0.024324216 -0.045293987 -0.03898745
000300 c1 46 5e 3c 4e 77 25 3d 0a 1a 3a 3d 02 99 33 bd
       0.013566674 0.04039698 0.04543499 -0.04384709
000310 44 f2 64 bd b0 11 c2 3c 91 07 1c 3c 77 17 5e bd
       -0.055895105 0.023690075 0.009523288 -0.054221597
000320 0f 45 af bc fc 98 f9 3c 1f 67 66 3d 87 46 9e 3c
       -0.021395234 0.030468456 0.056250688 0.01932074
000330 dc 7d 0f 3d 8e 09 39 bd d3 f5 15 3c d2 eb 38 bd
       0.03503214 -0.045175128 0.009152847 -0.04514677
000340 38 a6 0c bd 5c 4c d5 bc d5 3a d3 bc c4 08 e7 3c
       -0.034338206 -0.026037388 -0.02578489 0.028202422
000350 f2 b3 63 bc fe be 44 bd ac 05 4f bd 82 30 04 3d
       -0.013897883 -0.048033707 -0.05054252 0.032272823
000360 70 60 97 bc 3c c5 92 3b 1c 09 00 3d a6 d5 2e bd
       -0.018478602 0.0044790786 0.031258687 -0.04268422
000370 c0 ed 64 bd 4f 10 79 bd 75 da 66 3d 16 b4 06 bb
       -0.0558908 -0.06080657 0.05636068 -0.0020554117
000380 70 a5 5d bd 9a 05 bb bb fc ed c2 3c 99 97 2e 3d
       -0.05411285 -0.005707455 0.02379512 0.042625044
000390 5c 19 c0 3c 92 9c 43 bd f0 b2 5e bd 51 ca b6 3c
       0.023449592 -0.04775674 -0.054369867 0.022313269
0003a0 0c 85 aa bc 3a 75 14 bd 20 1e 6f 3b 72 df 5f 3d
       -0.020815395 -0.03624461 0.0036486462 0.054656453
0003b0 1e c7 6d 3d ec 9c df 3c fe ce 5d bd 7b 64 0c bd
       0.05805122 0.027296506 -0.05415248 -0.034275513
0003c0 1e 6e 4a bd f8 31 3d bc f3 10 17 bc 10 33 ba bc
       -0.049421422 -0.011547558 -0.00922035 -0.022729427
0003d0 96 2d a5 bb ac c4 13 bd 3a 70 7e bd 08 74 5a bc
       -0.0050408347 -0.036076233 -0.062118746 -0.013333328
0003e0 f8 ad e9 bb fa e5 4d 3d 79 60 23 3c 7f 15 21 3d
       -0.0071313344 0.05026815 0.009971731 0.03932714
0003f0 00 5d 90 3b e7 c8 fe bc dc 20 4d 3c 02 50 09 3d
       0.0044056177 -0.031101657 0.012520041 0.033523567

net.4.bias f4 [128]
000000 55 e7 2b bd 06 5a ba bc bf ee 47 3d 64 7b 86 3b
       -0.041968662 -0.022748005 0.04881167 0.004104065
000010 6e f7 2c bd 65 b0 14 bd c4 04 15 3d e6 7d c5 3c
       -0.042228155 -0.036301035 0.036381498 0.024107885
000020 d5 9f 4d bc 87 f5 f4 3b 93 7c 9d bc 90 08 96 3c
       -0.012550314 0.007475558 -0.01922444 0.01831463
000030 b1 b5 d2 3c c2 0b b0 3d 78 ce 61 bd 2e f4 46 bd
       0.025721403 0.085959926 -0.055128545 -0.04857271
000040 b2 b6 8a 3c d7 fa 69 bd 33 00 85 bc ef 27 41 bd
       0.016932819 -0.057123985 -0.016235447 -0.047157224
000050 6d de 12 3d 9c 07 87 bc 44 4c 77 bc bf 67 be 3c
       0.035856653 -0.01648312 -0.015093867 0.02324283
000060 2e 16 68 bb fb 68 46 bd 9e 46 39 38 e0 20 1e bd
       -0.003541361 -0.04843996 4.4173205e-05 -0.03860557
000070 9c fa 85 3c 83 60 74 bd 48 37 05 bd fe 59 2a bd
       0.016354851 -0.059662353 -0.032523423 -0.04158973
000080 94 c9 e3 3c c0 83 b6 bb 7f bc c7 bc 11 39 11 3d
       0.02780608 -0.005569905 -0.024381874 0.035454813
000090 fb 01 a0 bc 96 e3 fa bc e6 9f 63 bd 62 9d 3d 3d
       -0.019532194 -0.0306261 -0.055572413 0.04629267
0000a0 1a 71 0f bd 5d d9 e2 bb 5e 23 a9 bc e6 8a 5d 3d
       -0.03501997 -0.0069228844 -0.020646747 0.054087542
0000b0 52 ab 5b 3d c0 9e 82 bd 30 49 33 bc 68 6a 42 bc
       0.05363018 -0.063779354 -0.010942742 -0.01186619
0000c0 f9 48 6c bd ff b5 66 bd 8c 56 9a bc 17 86 2a 3c
       -0.05768678 -0.05632591 -0.018840097 0.010407946
0000d0 1c 96 b4 bb 6a 9b 97 3c d6 50 63 bd fb 8e 79 3c
       -0.0055110585 0.018506724 -0.055497013 0.015231843
0000e0 45 22 36 3d a9 b3 8b 3c 56 8f 8c 3d b7 07 a4 3c
       0.044466276 0.017053442 0.06863277 0.02002321
0000f0 f4 4e 92 3c 7a 75 3a bd 5c 59 18 3c a2 db 70 bd
       0.017859913 -0.04552219 0.009298649 -0.05880321
000100 c5 ad aa bb be d5 b3 3d e1 93 9f bc d5 3a 77 bd
       -0.005208703 0.087810025 -0.019479694 -0.06035884
000110 ef 1e a3 bc ed f4 74 bd d2 c0 0b bc 67 2b ac bb
       -0.019912211 -0.059803892 -0.008529859 -0.0052541974
000120 9c 27 0f bd 9b 4a 19 bd 95 18 1e 3c d8 32 0e 3d
       -0.034949884 -0.037424665 0.0096494155 0.034716457
000130 af aa de 3b 9c 54 6e 3d 86 11 21 bd 32 1a 51 bd
       0.0067952494 0.05818616 -0.039323352 -0.051050372
000140 43 9c 72 3d 8b 40 4a bd 10 64 7c 3c 27 56 4e bd
       0.059231054 -0.04937796 0.015404716 -0.05037513
000150 60 72 bc 3d 28 fa 70 bd da 4a 21 bd a4 09 d0 bb
       0.09201503 -0.058832318 -0.039378025 -0.0063488055
000160 e8 15 0c 3d 57 92 0a 3d 9a 1e 18 bc c7 71 ba 3b
       0.03420058 0.033830967 -0.00928464 0.005689833
000170 51 fa 44 bd f8 de 95 bc ab 5c b0 3c 9a 42 3b 3d
       -0.048090283 -0.018294796 0.021528563 0.045717813
000180 6f f3 04 3a fb 3d 0d 3d b4 a8 53 bd 87 c0 6f bc
       0.0005071675 0.034482937 -0.05167456 -0.014633304
000190 fb f9 41 3d 88 31 3d bc 9a fe 6a 3d 81 7e b0 ba
       0.04735754 -0.011547454 0.057371713 -0.0013465435
0001a0 d0 9e ad 3c de ab 80 bb 18 e9 60 3b df a2 47 3c
       0.021193892 -0.003926738 0.0034318622 0.012184828
0001b0 b3 fa 00 bd ae 8b a6 bc 80 51 64 3c 1b f8 69 bd
       -0.031489085 -0.020330276 0.013935447 -0.057121377
0001c0 2c e4 0d 3c cc 41 85 bd f7 83 0d ba f5 c6 49 3d
       0.008660357 -0.065066904 -0.00053983874 0.049262006
0001d0 98 de 6f 3d f9 a4 12 bd c2 34 4c bd fc b6 2f bd
       0.05856189 -0.03580186 -0.049855 -0.042899117
0001e0 48 db cf 3c 5b f0 59 3c 4e 36 09 bd 77 77 7d bd
       0.025373116 0.013301934 -0.033499055 -0.06188151
0001f0 ef 68 83 bd c5 f6 b3 3c 6c 29 5a bd 9f d3 22 3d
       -0.06416499 0.021968255 -0.05326216 0.0397526

net.6.weight f4 [4, 128]
000000 63 2b 7f 3d ae f4 d9 3d 61 c2 8f bd fb 81 86 bd
       0.062297236 0.10642372 -0.07019497 -0.065677606
000010 71 94 90 3d 2f 13 34 3d a7 9f 8f bd 17 40 08 bc
       0.07059563 0.043963607 -0.07012873 -0.008316061
000020 65 13 e1 3d 84 08 0f 3d 49 38 72 bd 42 69 10 3e
       0.10990027 0.03492023 -0.05913571 0.14102653
000030 41 ea 43 3d 6e 43 a6 3d 26 6a 2f 3a 3c 1d ff 3a
       0.047830824 0.0811833 0.00066915376 0.0019463669
000040 7e 73 18 bd 95 0b 39 3d 8b 37 ac 3d 4d 74 b1 3d
       -0.037219517 0.04517706 0.084090315 0.08664761
000050 19 20 a9 3d ad 4a a1 3d 5f 07 a3 bd de 24 8a 3d
       0.08258075 0.078755714 -0.0796039 0.06745313
000060 84 07 55 bd 84 94 3e 3d a7 17 be 3d 76 97 bb bc
       -0.05200912 0.046528354 0.09281855 -0.02289937
000070 50 d8 86 3d 80 60 b7 3d 81 a0 9c bd f4 93 30 bd
       0.06584227 0.08953953 -0.07647801 -0.04310985
000080 e5 90 f3 3d 2e da d4 bc 61 6f c1 3d 27 cc e0 3c
       0.11892871 -0.025982942 0.09445072 0.027441097
000090 39 85 2c 3d 60 42 83 3d 23 24 a8 3d 79 d0 e4 bc
       0.04211924 0.064091444 0.082100175 -0.027931439
0000a0 a3 9e 37 3c b7 06 41 bd 9a d3 6e 3d 7c 46 55 3d
       0.011207256 -0.047125544 0.058307268 0.052069172
0000b0 7a 81 a1 3d 9f f9 98 bc 49 cd b1 3d ea 2e 08 bd
       0.07886024 -0.018673716 0.08681733 -0.033247866
0000c0 6a 93 58 bc f7 ca 04 3d 2c 3c 8b bd 64 63 78 bd
       -0.01321874 0.032420125 -0.06798586 -0.06064166
0000d0 3a 58 ab bd f4 2f 99 3d e7 25 5c 3c e0 d1 a8 bc
       -0.08366437 0.074798495 0.013436771 -0.020607889
0000e0 b8 49 52 3d 8a 3a 05 3c cf 61 8c 3d b8 ba d0 3c
       0.051339835 0.008131633 0.06854593 0.02547966
0000f0 6f cc b9 ba 89 23 2c 3d 8a 4a d8 bc 8e a1 aa 3c
       -0.0014175306 0.042026076 -0.02640273 0.020828988
000100 89 cb 9b 3d c7 74 f8 3d 44 8d c1 3c ba ec e8 bc
       0.076071806 0.121316485 0.023626931 -0.028433193
000110 31 2c 23 3c e4 72 50 bd a1 be 78 3d c1 94 20 bc
       0.0099592665 -0.05089082 0.060728673 -0.009801091
000120 a6 00 3f bd f3 8f 6a bd 0a fc a1 bd d7 4d 0a 3d
       -0.046631478 -0.057266187 -0.07909401 0.03376564
000130 67 45 9a 3a ae 64 eb 3b d4 b1 94 bc a1 8a 47 bb
       0.0011769951 0.007183633 -0.018151201 -0.003044762
000140 4b f3 8e 3d 5d 1a 8e 3d 56 6f a4 bc 78 1e 8e bd
       0.06979998 0.06938622 -0.02007262 -0.06939405
000150 18 93 4b 3d 00 ba 69 bc ed 06 54 3d b2 d0 8b bd
       0.049700826 -0.014265537 0.051764417 -0.06826915
000160 93 6b a1 3d fd 8b ca 3d a9 09 8c bd 79 3c 60 bd
       0.07881846 0.09889982 -0.0683778 -0.05474517
000170 db 8a 81 bd ee 19 4a bd 15 61 59 3c 05 3b a2 bd
       -0.06325313 -0.049341135 0.013267775 -0.07921413
000180 7f 48 97 bc 2b 26 04 3b 36 89 ca bc 68 7e c5 3c
       -0.018467186 0.0020164351 -0.02472363 0.024108127
000190 97 0b 90 3b 1c 45 d9 3c 30 fe bc 3d 83 68 36 bd
       0.004395913 0.026522212 0.0922817 -0.044533264
0001a0 c9 1a a1 bc 8a 7e 40 3d 31 76 7d 3d 49 70 80 3c
       -0.019666092 0.046995677 0.061880294 0.015678542
0001b0 fa 64 98 bd b3 3d 6f 3d aa e5 4f 3d 5c 8e 07 bd
       -0.07441135 0.05840845 0.050756134 -0.03309475
0001c0 63 28 0e bd 52 3a 9d 3d 70 fb 5d bd cc ec dd bc
       -0.034706485 0.07677139 -0.054194868 -0.027090453
0001d0 3b 94 b8 3c 5a f2 98 bd ff c2 a7 bd e5 ed c7 3d
       0.02253162 -0.074681 -0.081914894 0.09762172
0001e0 6f 2e 46 3d 8e e7 6b 3d 49 78 8d bb 8e bf 31 bd
       0.048384126 0.057593875 -0.0043173176 -0.04339557
0001f0 53 8c 62 bd 95 e3 0d bd 57 1e 0c bd ed e0 9c bd
       -0.055309605 -0.034640867 -0.03420862 -0.07660089
000200 27 82 8a 3c 0f 4b 1c bd 33 9b 64 3d 4a df af bd
       0.016907765 -0.03815752 0.055812072 -0.08587511
000210 13 bc ad bd 57 b6 1c 3d 9e 41 36 3d e6 21 46 3c
       -0.08483138 0.03825983 0.04449617 0.012093043
000220 fd 00 00 bd 2b 1d ba 3c 37 c2 61 3c 5f df 8b bd
       -0.031250942 0.022718986 0.013779215 -0.06829714
000230 03 c6 e4 bc 63 9b 62 3c 73 ca 16 bd 18 04 0b 3d
       -0.02792645 0.013830992 -0.036814164 0.03393945
000240 b0 60 00 bd aa 14 1e bd c5 5a 31 bc 89 3c 1a 3d
       -0.03134221 -0.038593926 -0.010824864 0.037655387
000250 47 2f 48 3d 6a 8c 23 bd da 74 ec bc f1 6f 87 bd
       0.048873212 -0.03992883 -0.028864313 -0.06613148
000260 e0 26 ce 3c e6 41 3b 3d a1 a2 f2 bc b9 8d 44 3d
       0.025165021 0.045717143 -0.029618563 0.04798672
000270 6c 58 91 bd a3 8d 14 3c d7 09 9f 3d 05 2b 75 bd
       -0.07096943 0.009066972 0.07765549 -0.05985548
000280 22 4b 87 bd 21 35 06 bd 16 41 80 3d e1 20 73 3d
       -0.06606127 -0.03276551 0.06262414 0.059357528
000290 11 da b3 3d 44 9f 56 bd 7b b9 d4 3c 16 6c 81 bd
       0.08781827 -0.05239798 0.02596735 -0.06319444
0002a0 37 95 a8 3d b1 6e 05 3c 9d 84 9e bc d9 4b bd 3d
       0.082315855 0.008144067 -0.019350344 0.092429824
0002b0 a2 46 d5 3c 9c f2 75 3b fc 2c 31 3d c7 71 b8 bd
       0.026034657 0.003752864 0.04325579 -0.09006076
0002c0 18 09 98 bd ab f5 a8 3d 67 6f 81 bd 97 f6 2f 3b
       -0.074236095 0.082499824 -0.063200764 0.002684986
0002d0 21 ae 68 bd 81 24 56 3d d6 67 41 3d e7 15 0f bc
       -0.056806687 0.052280907 0.047218166 -0.008733249
0002e0 6f de 5a 3c d1 2d 0c bd 52 4f 68 3d 0c 19 02 3d
       0.013358696 -0.03422338 0.05671627 0.031762168
0002f0 e2 ca 1e 3b ba 73 54 bd 1f 35 3b 3d 7a 12 23 bd
       0.0024229814 -0.051868178 0.045704957 -0.039812542
000300 3d ad ae bd a2 64 e3 bc 55 ed a0 bd 20 21 94 3d
       -0.08529136 -0.027757946 -0.078577675 0.072328806
000310 66 f0 f3 bc ba 71 b5 3c 3d e9 03 bb be 51 67 3d
       -0.029777717 0.022148956 -0.0020128035 0.05647444
000320 5c 9c e0 3b b0 4c 89 3d 2c ee 71 3d 6f 86 70 3d
       0.006854577 0.0670408 0.05906503 0.058721956
000330 d6 a2 1a bd 43 be a7 bd 8c 6e 10 bd 5e ad 97 3d
       -0.03775295 -0.081905864 -0.035261676 0.07406114
000340 90 52 17 bd a6 31 2d 3d 2c cb fd bc 3a 2f 89 3d
       -0.036943972 0.042283677 -0.030980669 0.06698461
000350 56 25 8d bc 89 14 37 bd 1e cd bf 3c 24 8d 96 3d
       -0.017229717 -0.04469732 0.023413237 0.07351139
000360 5f f1 03 bd 78 62 0f bd 70 7d 2c bd 96 04 21 3d
       -0.03221261 -0.035006016 -0.042111814 0.039311014
000370 44 a0 a2 3c 5c 27 53 bc 45 a7 27 bd 28 df 58 3d
       0.019851811 -0.012887802 -0.040931005 0.052947193
000380 0a 55 95 3c 80 fc 34 bc dd 66 7b bc be 62 87 bd
       0.018229026 -0.011046529 -0.015344349 -0.066106305
000390 ad 1f 14 bb 7e 43 df bc e1 f0 a2 bd 20 0c b0 bb
       -0.0022601888 -0.027253862 -0.079561 -0.005372539
0003a0 07 42 14 3d b5 76 77 3d fa 74 ac 3d 8d 16 ae 3d
       0.03619578 0.060415942 0.08420749 0.08500395
0003b0 e2 4a a3 bd 0b c8 91 bd 78 59 d3 3c dc 4c 96 bc
       -0.07973267 -0.07118233 0.025799498 -0.018347196
0003c0 15 dd 8a bd a0 7b 5a 3b fc 47 b7 bc bc e7 7f 3d
       -0.06780449 0.0033337846 -0.022373192 0.06247686
0003d0 8d 11 27 bd be 5e af 3c cd 3a 25 3d a8 23 61 bd
       -0.040788222 0.021407481 0.04033928 -0.054965645
0003e0 8e 82 71 bd 9a 17 8b 3d da a0 5b bc 01 a5 a0 3d
       -0.058962397 0.06791611 -0.013405049 0.07843972
0003f0 3f df 0a bc 46 f1 37 bd f3 8f 24 3d 7d 36 07 3d
       -0.008476078 -0.04490783 0.040176343 0.03301095

net.6.bias f4 [4]
000000 57 82 0c bd c6 d5 8a bc 00 9b 84 3d 4a 0f 7c 3d
       -0.03430399 -0.016947638 0.064748764 0.06153802
